Automated_SegmentAndYolo/unet_model.pth (torch, 159332 bytes, 6 tensors)

encoder.0.weight f4 [64, 3, 3, 3]
000000 fb e3 ad bd 3c 19 01 3e 3f 83 07 3e 49 a8 61 bd
       -0.084907494 0.12607282 0.1323366 -0.05509213
000010 bc 9f b7 bd 86 87 47 bd e5 1a db bd 28 5b 36 be
       -0.08966014 -0.04871323 -0.10698489 -0.17808211
000020 5e 62 87 3d 9e 73 05 bd c4 74 5e bd 8c 34 bb bd
       0.06610559 -0.032580964 -0.054310575 -0.09140882
000030 ad 52 97 3d db 82 43 3d bc 45 29 be 93 00 2f 3c
       0.07388816 0.047732215 -0.16530508 0.010681289
000040 9b 89 1a be 79 05 f0 bd eb e0 7d 3b c1 ef 2b 3e
       -0.15091555 -0.11719794 0.0038738798 0.16790678
000050 eb 50 9c ba 4f 9b 62 3d d6 d9 0b 3e 9c d5 d1 3b
       -0.0011925971 0.055323895 0.13657317 0.006403638
000060 c8 94 ff 3c 7d c2 f3 bd 47 d4 3a be 99 97 20 3e
       0.031198874 -0.1190233 -0.1824504 0.1568283
000070 2e 8d 20 3e 31 e8 8b bd 77 e9 8a bd e3 47 00 3e
       0.15678856 -0.06831396 -0.06782811 0.12527423
000080 38 b7 fd 3c a3 b7 b8 bd 09 db 0b 3d 60 d5 a5 bc
       0.030971155 -0.09019401 0.034144435 -0.020243347
000090 0c 1a 15 be ac e4 39 bc 92 65 26 3d 3c 7f 20 be
       -0.14560717 -0.0113460235 0.04062421 -0.15673536
0000a0 c3 cb fc bd 5e dc 2b 3e 44 34 1f bd d4 7a a7 3b
       -0.12343552 0.16783282 -0.038868204 0.005111078
0000b0 a1 55 a4 3d 33 82 61 3d 2c d6 51 bd 3b fb eb 3d
       0.08024145 0.05505581 -0.05122964 0.11522528
0000c0 76 10 0a bd 4f 5f 80 bb 17 7e 00 bc dd 47 aa bd
       -0.033707105 -0.0039176117 -0.007842562 -0.08314488
0000d0 b7 85 29 3e 31 88 34 be fc 7d db 3d 00 b2 de 3d
       0.16554914 -0.17630078 0.10717389 0.108737946
0000e0 87 f9 3e 3e c4 7d cf 3d 3d 49 f2 bc b0 ce c1 3d
       0.18649875 0.1013141 -0.029575938 0.09463251
0000f0 31 fc 8a bd 0c 27 de bd 04 64 a6 3d c5 75 bd 3d
       -0.06786383 -0.10847291 0.08124545 0.092509784
000100 ef f4 9c 3d 64 7e 38 be 81 84 f4 3c 4d 26 29 bd
       0.07663905 -0.18016964 0.029848339 -0.041296292
000110 46 3d 26 bd 45 0b c2 bc fb fd 34 bd 18 a7 3c be
       -0.04058578 -0.023687014 -0.044187527 -0.18423116
000120 4b 2e b2 bd 58 ca 34 be 17 2c 05 bc f3 51 ea 3d
       -0.08700236 -0.17655313 -0.008128188 0.11441412
000130 b2 72 03 be 33 d3 0d be 90 51 88 3d ec fd 31 3d
       -0.12836722 -0.13850097 0.06656182 0.04345505
000140 43 ef 8f bd f8 0e b7 3d 98 d4 77 3d 39 a8 2f 3e
       -0.070280574 0.08938402 0.06050548 0.17154016
000150 f4 67 14 3e ff b4 2a bd 1f 89 08 be 23 98 a4 bd
       0.1449278 -0.041676518 -0.13333558 -0.0803683
000160 73 38 a2 bd ee ae 92 3c 5f 15 bd 3d 01 5e 0a 3e
       -0.07920923 0.017905679 0.09232592 0.13512422
000170 b4 d0 6a bd de 07 b9 bd a1 e3 c3 3d 76 69 21 be
       -0.05732794 -0.09034704 0.09564901 -0.15762886
000180 f0 de d4 3c d1 d4 2c bd 4c 53 f0 3c 22 14 42 bd
       0.025985211 -0.042195145 0.029336594 -0.04738248
000190 85 e4 a7 3c b4 d4 c0 bd a3 10 84 bd e4 5f b4 3c
       0.020494709 -0.0941557 -0.06448486 0.02201838
0001a0 b5 49 01 3d e0 0c 20 3e fd 7e 06 3e f8 7a 40 bc
       0.031564433 0.15629911 0.1313438 -0.011748068
0001b0 06 2c d2 3c 6b a4 14 be 2b 09 36 3e 01 e9 9f 3c
       0.025655758 -0.14515845 0.17776935 0.019520285
0001c0 8f 5d aa 3d c0 b3 d1 3d b6 b2 af bd cf 80 7b bd
       0.08318626 0.10239363 -0.08579008 -0.06140214
0001d0 9f 06 ea bd 87 66 8a 3d 44 13 92 bd 4e 2a 38 be
       -0.11427044 0.06757837 -0.07132581 -0.17984888
0001e0 0b 28 1f be e1 2c d0 3d e7 29 b2 3d f4 fb 0d be
       -0.15542619 0.1016481 0.086993985 -0.13865644
0001f0 61 5f ae 3d f7 7d ef 3c 73 55 af 3d 08 e8 0b 3e
       0.08514286 0.02923487 0.0856122 0.13662732
000200 33 5a dc bd cf 79 6d bc 40 75 21 be 70 93 e7 bd
       -0.10759392 -0.014494373 -0.15767384 -0.11307418
000210 d0 ef e7 3d 4a c5 7c bd f3 78 ef bd 8f a6 21 3e
       0.113250375 -0.061711587 -0.11692991 0.15786193
000220 a8 a5 0a 3e b1 f9 df 3c d1 6d 3d be 27 9f a9 3d
       0.13539755 0.027340742 -0.18498923 0.08282309
000230 70 a0 13 be db 76 28 3e 56 77 10 be 42 7a a1 3d
       -0.14416671 0.1645159 -0.14108023 0.07884647
000240 f6 91 e8 3d 19 35 9e 3d 86 52 38 3e 2a 41 9f bd
       0.11355965 0.07724971 0.1800023 -0.07776101
000250 56 2a 9d 3d bb 0e 71 bd ab 65 2b be 47 39 02 be
       0.076740906 -0.05885194 -0.16738002 -0.12717162
000260 05 d0 5d 3d 55 2b f4 bd e8 a5 fd bb a6 bc b5 3d
       0.05415346 -0.119223274 -0.007740725 0.088738725
000270 da 4d 35 3e 45 c8 43 3e e7 21 16 be 20 aa 2f 3e
       0.1770548 0.19119366 -0.1466137 0.17154741
000280 81 98 a2 bd 43 29 1e be d5 49 c0 bc 2c cd b5 3d
       -0.07939244 -0.15445428 -0.023472706 0.08877024
000290 20 8b ac bd 9d b7 95 bd 96 06 43 be 45 d5 6a bb
       -0.084249735 -0.07310412 -0.19045481 -0.0035832685
0002a0 45 b5 14 bd e2 52 05 be 8c 54 5b bd 5b 7c fe 3d
       -0.036305685 -0.13019899 -0.053547427 0.12426063
0002b0 91 cb 00 3e d0 36 4d bc 9f dc 30 3d 8d 4b 57 bc
       0.12577654 -0.012525275 0.04317915 -0.013140571
0002c0 ab a7 41 be a2 17 f9 bd f0 47 c5 3d ac 97 00 3e
       -0.18911617 -0.12162711 0.096328616 0.12557858
0002d0 bd c5 16 be 05 89 f0 3c 91 f6 1b 3d 0a aa e5 3d
       -0.14723869 0.029362211 0.03807694 0.11214073
0002e0 e8 8f 1d be df 57 2e bd 54 43 20 3d b7 58 d3 3d
       -0.15386927 -0.04256427 0.03912671 0.103196554
0002f0 b5 94 07 3d b5 ac 29 3e ac ad c7 bd c7 a2 9d 3d
       0.033100802 0.16569789 -0.09749922 0.07697063
000300 1f 68 2b be ac e9 13 3e ec fe 51 bc 6a f1 84 3d
       -0.16738938 0.14444607 -0.012817126 0.064913586
000310 19 3a b7 3d cf fd be bd 76 21 21 be 05 06 00 bb
       0.08946628 -0.09325754 -0.1573542 -0.0019534838
000320 94 f8 ea 3d 76 4a a5 3d 87 6f 30 3e 9e 6d 03 be
       0.11473194 0.08070843 0.17230044 -0.12834784
000330 00 73 28 be 40 da 2a 3e 8a 89 9b bd a8 18 21 3d
       -0.16450119 0.16684818 -0.07594593 0.039330155
000340 87 9c 7a bd a2 eb 47 bd 41 41 44 3d 59 22 15 be
       -0.061184432 -0.0488087 0.047913793 -0.14563884
000350 3d 7b 1e bb 8b 66 fd 3c ef 05 eb bc 0f 03 f6 bc
       -0.0024182342 0.030932685 -0.028689353 -0.030030755
000360 e4 45 b9 bc 60 ca 0e be 63 1d c8 bd 32 47 4b be
       -0.022616334 -0.13944387 -0.0977123 -0.19851378
000370 0c 8e e7 3d 36 72 cf bd 35 16 0b 3e 2c 1e 01 be
       0.1130639 -0.10129206 0.1358269 -0.12609166
000380 a0 17 b9 3d 97 06 9e 3b 13 e8 20 3d 1e 5a 19 3e
       0.09037709 0.004822563 0.039283823 0.14975783
000390 11 df e5 bd 29 ae ec bc 3c 23 62 3d 1a 3d 4e bd
       -0.11224187 -0.02889164 0.055209383 -0.05035124
0003a0 5f 9f f2 bd 42 a0 3d 3e 0a 0c 87 3c f2 b2 55 bd
       -0.11846804 0.18518165 0.016485233 -0.05217261
0003b0 0b a3 09 3e 3e e0 2b be f2 1a 0e bd 45 be 06 3e
       0.13441102 -0.1678476 -0.034693666 0.1315852
0003c0 cb 44 18 bc d7 af 8a 3d b9 13 cb bd ed c2 a6 3d
       -0.009293745 0.0677182 -0.09915871 0.08142648
0003d0 35 44 e0 3d 26 7b 4b 3d 94 bc 42 3c 78 71 c5 3d
       0.109505095 0.04967799 0.011885781 0.09640783
0003e0 05 96 a4 bc 7b 47 24 3e c3 c2 e7 bd 3c 5e c7 3d
       -0.020091066 0.16042893 -0.11316445 0.09734771
0003f0 a3 98 21 be 4d d2 97 3d 95 87 92 bd bd 39 09 be
       -0.15780883 0.074131586 -0.071547665 -0.13400932

encoder.0.bias f4 [64]
000000 d0 14 08 3e 66 a8 0a 3e a7 be 30 be 49 f4 3a be
       0.1328919 0.13540801 -0.17260228 -0.1825725
000010 16 de 2b 3e 4f dd cb 3d 72 15 09 3e d9 b0 45 bd
       0.16783938 0.09954321 0.13387087 -0.04826436
000020 63 ac 5b bd 00 a7 37 be ac f4 0f 3e ae 92 7b 3c
       -0.053631198 -0.17934799 0.14058179 0.015354795
000030 01 a0 d4 3d 5d 9b 2c be 4d 58 5e bc 04 05 06 be
       0.10382081 -0.16856141 -0.013570857 -0.13087851
000040 30 83 30 bc 07 1f 37 be c4 c5 44 3e f1 6e 2d be
       -0.010773465 -0.1788293 0.19216067 -0.16936852
000050 39 29 32 3e 20 a3 e7 bd b3 d1 35 be eb 34 c2 bc
       0.17398538 -0.113104105 -0.17755775 -0.023706874
000060 21 35 ed 3c 77 d4 e1 bd b3 3e 5a bd 8d 64 34 be
       0.028955998 -0.110268526 -0.05328245 -0.17616482
000070 57 58 7f bd 54 6d eb 3d d7 0a 15 be 5b cd 1b 3e
       -0.062340107 0.11495462 -0.14554916 0.15215056
000080 04 d3 f9 bd 9a 7a 24 3e 2d 57 42 be a2 5f f6 bc
       -0.12198451 0.16062394 -0.18978567 -0.030074898
000090 81 2b bb bc b1 27 3e 3e 0f 09 38 3e 24 9b 90 bd
       -0.022847893 0.18569829 0.17972206 -0.07060841
0000a0 b3 9f 15 3e 77 bd ef bd fa be 7c bd 74 7f 22 3d
       0.14611702 -0.117060594 -0.061705567 0.03967233
0000b0 cf f8 b4 bd 15 04 9a 3d 2b 01 1a 3e 3d 86 d6 3d
       -0.08836519 0.0752031 0.15039508 0.10474823
0000c0 ec 99 09 bb 58 38 3a 3e bd 3c 00 3e 48 e3 28 be
       -0.0020996286 0.18185556 0.1252317 -0.16492951
0000d0 40 d2 23 3e 03 38 06 be e4 f3 02 3e b7 37 45 bd
       0.15998173 -0.13107304 0.1278835 -0.048148837
0000e0 bf 99 9d bd 4e d1 1b 3e 07 19 93 bd 6a d5 f9 bc
       -0.0769534 0.15216562 -0.07182508 -0.030497272
0000f0 2f 86 a6 3c 99 8a 00 3e dd 8f f4 3d 48 13 4f 3c
       0.020327656 0.12552871 0.11941502 0.012638874

encoder.2.weight f4 [64, 64, 3, 3]
000000 f3 bf d1 3b 09 f2 ca bb e5 38 a9 bc 67 06 79 bc
       0.006401056 -0.0061934036 -0.020657012 -0.01519928
000010 e4 a8 f7 3b 55 4f d9 3c 43 bf b7 bc bb 55 3f bd
       0.007557975 0.026527086 -0.022430068 -0.04671262
000020 6c 95 eb bc 4d 2f dc 3c 88 5c 37 bd 18 9d 14 bd
       -0.028757773 0.026878024 -0.04476598 -0.03628263
000030 43 96 e0 bc a0 ab 10 bd f2 5e 28 bd cf be 1f bd
       -0.0274154 -0.035319924 -0.041106172 -0.03900033
000040 fe 93 54 39 21 1c fa bb ca 92 83 bc 98 a4 02 bd
       0.00020273027 -0.0076327478 -0.016061205 -0.03189525
000050 07 6e 25 3b 82 78 63 bc 0c 39 a2 bc c5 2c 97 3c
       0.0025242583 -0.013883712 -0.019802593 0.018453965
000060 94 43 f3 bc 3a 03 0d bd f3 f1 08 bd df bd 9c 3c
       -0.02969531 -0.034426905 -0.033433866 0.019133506
000070 f5 25 b1 3c fd d1 26 bc 20 83 40 3c 81 92 45 bc
       0.021624545 -0.010181901 0.011750013 -0.012058855
000080 e2 c0 01 3d 78 2f 73 3c 7f d9 0e bc 55 ee d4 3c
       0.031678088 0.01484286 -0.008718847 0.025992552
000090 dd 31 07 bd ae d9 1e 3c c5 9c bb 3c 60 4c ab bb
       -0.033006538 0.009695454 0.022901902 -0.0052276105
0000a0 99 71 1b 3c ab 58 f9 bc 94 aa f2 bc a7 78 e7 3c
       0.009487533 -0.030437788 -0.029622354 0.028255774
0000b0 fc f6 e8 3c e5 8f 6f 3c 8b 32 8a bc ea c1 4f 3c
       0.028438084 0.0146217095 -0.016869804 0.01268051
0000c0 03 0c ba 3c b5 07 2e bd 51 3d bb 3c 93 14 f7 bb
       0.022710806 -0.04248782 0.022856386 -0.0075402944
0000d0 37 47 ee 3c cb c9 83 3c c8 12 03 3d a8 f1 49 3c
       0.029086692 0.016087433 0.032000333 0.012325682
0000e0 67 29 b5 bc ab 33 83 3c 1f da 8a bc 17 a0 14 bd
       -0.022114469 0.016015848 -0.016949711 -0.036285486
0000f0 12 5d 2e bd 8e 5b a3 3c 01 f8 08 3d a3 8a 57 3b
       -0.042569228 0.019941118 0.03343964 0.003288903
000100 c5 f9 f1 bb a8 75 ba 3b 79 db df bc b4 d6 ce 3c
       -0.007384511 0.0056902952 -0.027326332 0.025248863
000110 5d c7 08 bc 72 9b 1e bd e9 c0 c8 bc f6 d7 03 bd
       -0.008348313 -0.038722463 -0.02450605 -0.03218838
000120 5d d5 09 3d 38 ad e0 bb 4f 03 13 bd 8a 18 5a 3c
       0.033650745 -0.006856587 -0.035891827 0.013311515
000130 a4 ec a7 3b 49 8b a3 bc 59 33 07 3d 04 46 00 3d
       0.0051246453 -0.019963877 0.033007953 0.031316772
000140 68 53 f6 bc 05 e8 f6 bb e8 a3 8b 3c d4 99 16 bd
       -0.030069068 -0.007534983 0.01704593 -0.036767796
000150 e7 65 ec bc c9 8d 14 bd d4 20 0a 3d 8b d7 7d 3b
       -0.028857185 -0.03626803 0.033722714 0.003873321
000160 ce 1d 04 3d 22 95 d6 3b 18 6f b0 bc 70 96 a1 bc
       0.032254986 0.0065485397 -0.021537349 -0.019725055
000170 04 6c 65 bc e2 e3 15 bb de 85 31 bd 17 97 93 3c
       -0.014002804 -0.0022871424 -0.043340556 0.018016381
000180 06 d3 d5 3b 8e dd df 3c 16 fb 8b bc 4e 48 62 bc
       0.0065254 0.027327325 -0.0170875 -0.013811184
000190 1a 74 d0 bb bd e6 ec bc bf 40 90 bc 60 1f 19 bd
       -0.0063614966 -0.028918618 -0.017608998 -0.037383437
0001a0 22 f2 6c 3c 79 df db bc c5 f2 31 bd 5e 01 e2 bc
       0.014462026 -0.026839959 -0.043444414 -0.027588543
0001b0 41 b6 e1 3c 33 fc 08 bd 5b 49 cf 3b 2b ba d1 bc
       0.027552726 -0.03344364 0.0063258833 -0.025601467
0001c0 2d 69 9a 3c 0c 50 9d bc 4f 30 0a 3d e9 40 2f bd
       0.01884898 -0.019203208 0.033737477 -0.042786513
0001d0 cf 00 b4 bb f1 3c 35 3c 74 7f 00 39 57 6e b9 3c
       -0.0054932605 0.011061893 0.00012254511 0.022635622
0001e0 5a 0d ce 3c f0 37 0b bd c8 d1 78 3c 3e b2 02 bc
       0.02515285 -0.033988893 0.0151867345 -0.007977067
0001f0 3d 3a cf ba d8 dd e1 3c f0 95 39 bd 1d 13 bb 3b
       -0.0015810203 0.027571604 -0.045309007 0.0057090656
000200 e0 a2 c7 3c 75 ef fc bc 63 53 86 bb 5a c0 89 3a
       0.024369657 -0.0308759 -0.004099296 0.0010509596
000210 14 c7 ea 3c 6b 2b 03 3d 90 04 1f bd 41 07 a8 bc
       0.028659381 0.03202383 -0.03882271 -0.020511271
000220 b8 99 e4 bc 96 6d ad bc 1e 8b 4d 3c 11 2b 23 bd
       -0.02790533 -0.021170419 0.012545375 -0.039835993
000230 d9 f0 3f bd 75 98 1c bc ba 2b e8 3c 9b 9b 72 bc
       -0.04686055 -0.009557833 0.028341163 -0.014807607
000240 e6 5e 83 bc e3 d5 20 3d 24 a3 1f 3c bc 3a 17 bc
       -0.016036462 0.03926648 0.009743486 -0.009230312
000250 8f 56 27 bd 40 bb 61 3a a0 15 ed 3a 66 96 dc 3c
       -0.040854033 0.0008610971 0.001808811 0.026927184
000260 5a d6 ea 3c f0 72 49 bb b0 d4 0a bb d0 9e 38 3c
       0.028666664 -0.0030738674 -0.00211839 0.011268333
000270 78 87 24 bd ff 5b 10 bd 98 9e c8 3b 00 a0 83 39
       -0.040168256 -0.035243984 0.0061224215 0.00025105476
000280 fc c5 3e 3c cc ad 7a 3c f4 bf d5 bb fe fa ee 3c
       0.011643883 0.0153002255 -0.0065231267 0.029172417
000290 27 9a 28 bd fa 98 95 bb c2 de 17 bd 15 f2 cd bc
       -0.041162636 -0.0045653554 -0.037077673 -0.025139848
0002a0 72 61 c6 3c ca 6b 0b bd c4 22 bb bc 22 14 f9 3b
       0.024216387 -0.034038343 -0.022843726 0.007601277
0002b0 07 b6 e7 3c 0c 05 85 3c 14 c5 07 bd fd 1d 63 3c
       0.02828504 0.016237758 -0.033146933 0.01386213
0002c0 db 78 ec 3c 06 4c 13 3c d8 ce fc 3b aa 5f a4 3c
       0.028866222 0.008990293 0.0077150874 0.020065147
0002d0 76 81 41 bc 04 76 33 bd 4a 72 40 bd 7e 3e f5 bc
       -0.011810651 -0.04381372 -0.046983995 -0.029937025
0002e0 be 35 01 bd 4c ab c2 3c ab 11 99 bc 1f 87 c3 bc
       -0.031545393 0.023763321 -0.018685183 -0.023868142
0002f0 46 58 fc bc a6 12 80 3c da 67 20 3c c6 57 be bc
       -0.03080381 0.015633892 0.009790385 -0.023235213
000300 1b 9a 3e bd bc b5 ec bc ad d5 01 3d b2 2e a6 bc
       -0.046533685 -0.028895251 0.031697918 -0.020285938
000310 8f 87 cf bc 24 07 af bc aa 5a 82 bc 26 f7 b2 3c
       -0.025333194 -0.02136571 -0.015912373 0.021846365
000320 20 1d 3a bd 7d 5e 78 3c 64 db 96 3b 12 84 01 bd
       -0.045437932 0.0151592465 0.00460379 -0.031620093
000330 be 5b 05 3d 48 fd 2a 3b 4f c4 39 bd 30 13 a5 bc
       0.032558195 0.0026090909 -0.04535323 -0.02015075
000340 74 44 ad 3c b5 5e 3c bd 57 52 81 bc 26 6a 94 3c
       0.021150805 -0.045988757 -0.015786333 0.018117022
000350 83 e0 01 bd d5 b3 1e bd 9e 1a 02 bd d3 5c 34 bc
       -0.03170825 -0.03874572 -0.031763665 -0.011008459
000360 9c 40 ca 3c 94 40 e8 3b 41 f9 a3 3c f9 a9 0e bb
       0.024689011 0.0070877764 0.020016314 -0.0021768792
000370 8e 98 52 bc f6 1c a4 bc 30 a1 db bc 1b 78 2f 3b
       -0.012853755 -0.02003334 -0.026810259 0.002677447
000380 a8 bc cc bc ec 73 2c bb 56 69 14 bd a9 5b f3 bc
       -0.024992302 -0.0026314212 -0.03623327 -0.029706793
000390 d7 f2 ef 3b 78 61 19 3c eb ad 99 bc fc 83 39 3c
       0.00732265 0.009361617 -0.018759688 0.011322971
0003a0 d3 af fa 3c 3e e5 13 bd 0c ba 04 bd 37 31 15 bd
       0.030601418 -0.036107294 -0.03240399 -0.036423888
0003b0 70 85 06 bd 3c e2 51 bc 08 ab 0b bd ba 23 10 bb
       -0.0328421 -0.012810286 -0.034098655 -0.002199395
0003c0 76 4b 2f bb 13 ec c0 3c 96 b4 03 bd df 06 b7 3b
       -0.002674786 0.023550069 -0.032154642 0.005585536
0003d0 94 14 06 3c 5d 50 8d 3c d5 31 4f bc bb f2 53 3b
       0.008183617 0.017250234 -0.012646158 0.0032340724
0003e0 e3 68 4c bc 5e a3 0c bd 11 8f 8d bc 34 58 02 bd
       -0.012476179 -0.034335487 -0.017280133 -0.0318224
0003f0 69 c4 0f 3d 31 d5 71 3c 42 d7 c2 3c f1 43 53 ba
       0.03509942 0.014760301 0.023784284 -0.0008059135

encoder.2.bias f4 [64]
000000 42 ce cd bc 43 d2 41 bc 86 0e fa bc 54 7d 9d bc
       -0.025122765 -0.011829915 -0.030524503 -0.0192248
000010 67 9f fc bb 94 1d 34 bb 42 c3 b2 3c 45 65 60 3c
       -0.007709432 -0.002748345 0.021821622 0.01369602
000020 79 e4 a0 bb a8 4b 66 3c 14 70 23 bc c9 ea 29 3c
       -0.0049100486 0.014056124 -0.009975452 0.010370919
000030 8e 09 79 bc 49 d9 66 3c c0 a3 d6 bb 39 12 34 bd
       -0.015200032 0.014089891 -0.0065502822 -0.04396269
000040 4d b8 12 bd a3 ac 1c 3d 80 77 6b bc 23 c7 8b bc
       -0.035820294 0.038250577 -0.014371753 -0.01706273
000050 50 f0 00 bd ec ea d7 3c a4 08 21 bb 4e 08 b4 3c
       -0.03147918 0.026357137 -0.00245718 0.021976616
000060 4b 47 2a bc 9d 61 5e 3b 9b d3 35 3c f9 39 b5 bb
       -0.010392974 0.0033932694 0.011097814 -0.0055305925
000070 78 ca ed 3b 4b e3 30 3c a3 c6 df 3c c4 4c 07 3c
       0.007256802 0.010796378 0.027316397 0.008258048
000080 36 76 af 3c 89 ef 3b bc ca 63 06 3d 5a 2b 1e 3a
       0.021418672 -0.011470684 0.03281001 0.00060336816
000090 de bd 00 3d 9d f2 e5 bc 60 71 0f 3c ed c7 29 3d
       0.03143107 -0.028069789 0.008755058 0.04145043
0000a0 01 cb cd 3b cf 0d 85 bc df 3c 7c 3c 2d 1b ea bc
       0.0062803035 -0.016241936 0.015395372 -0.028577412
0000b0 f9 f4 06 bd 4d a7 da bc ae e2 88 bc 39 c5 db bc
       -0.032948468 -0.026691103 -0.016709652 -0.026827442
0000c0 4c 77 c6 3c 2f 3f 41 3c bb ce 41 bc 4e 9d c6 bc
       0.024226807 0.011794849 -0.011829074 -0.02424493
0000d0 f2 6a d2 bc 53 7f e9 3c 0b 2f 0c bd e1 1a a5 bc
       -0.025685761 0.028503096 -0.03422455 -0.020154418
0000e0 4d cc 2f 3b 8a d7 43 bc 00 e2 1f bd 88 08 19 bc
       0.0026824654 -0.011953244 -0.03903389 -0.009340413
0000f0 37 23 49 3b 67 9f 03 bd 4c 19 3d bd 58 b1 da 37
       0.0030691156 -0.03213444 -0.046166703 2.6070207e-05

decoder.0.weight f4 [64, 1, 2, 2]
000000 89 5a c9 3e ad 58 c1 3e ff de 9e be c0 68 c6 3e
       0.39326885 0.37762967 -0.31029508 0.38751793
000010 60 ac 50 be 71 af ea 3e 66 51 a3 be 25 d6 eb be
       -0.20378256 0.45836976 -0.3189804 -0.46061817
000020 9f 86 9c bc 89 8a a3 3e c6 9f 75 3e 06 6e 50 be
       -0.019107161 0.3194163 0.2398673 -0.2035447
000030 38 79 5f 3e d1 05 a3 be 48 06 f5 be 9c 70 d0 be
       0.21823585 -0.31840375 -0.47856355 -0.40710914
000040 b7 ea e2 be 39 85 23 3e ef 18 9b be 0d d3 f3 be
       -0.44319698 0.15968789 -0.3029246 -0.47621956
000050 ef 4b eb 3c 31 99 e6 3e 55 68 94 3e 40 85 ba 3e
       0.028722731 0.4503875 0.2898585 0.36429787
000060 a7 60 38 3e 0a c9 08 3e c7 d8 0a be 7b af ac bd
       0.1800562 0.1335794 -0.13559256 -0.08431908
000070 7a a0 8b bd ba 85 6e be bd f3 8d 3e 17 9c dc be
       -0.06817718 -0.232932 0.2772502 -0.43087837
000080 9e 3d d2 be c4 4b d1 be 8d 44 ce 3e fb 40 cd 3e
       -0.41062635 -0.40878117 0.40286675 0.4008864
000090 13 5c dc 3e 66 91 6e 3e fe 67 f1 be 46 b1 ed 3d
       0.43038997 0.23297653 -0.47149652 0.11606078
0000a0 a1 65 f4 be 30 b1 f6 3d d6 e9 51 be 20 ff 8c be
       -0.47733787 0.120455146 -0.20499358 -0.27538395
0000b0 c4 33 80 3e 84 f3 a5 be c0 f6 00 bf 27 41 73 3e
       0.25039494 -0.3241235 -0.5037651 0.23755322
0000c0 a7 e9 85 be 7d c0 43 3e e7 fb f8 be 5c 43 32 3d
       -0.26154825 0.19116397 -0.48629686 0.04352127
0000d0 90 72 fb 3e 9f c7 89 bd 60 a8 4c bc d7 80 f8 3e
       0.49110842 -0.06727528 -0.012491316 0.48535797
0000e0 bf 4e cc bd 57 c6 be 3e 3c 30 cc 3d e6 9d 82 3e
       -0.09975957 0.37260696 0.099701375 0.25511092
0000f0 58 50 e6 be 76 1a 5b 3e 91 79 e3 3d e7 c8 09 be
       -0.44983172 0.21396813 0.11107171 -0.13455544
000100 1a cc 9c 3e c9 0b b9 3e 7e 08 83 3e 39 50 be be
       0.30624467 0.36141804 0.25592417 -0.3717058
000110 51 82 5f be 93 4d fe bd 85 82 da be 6f 17 99 be
       -0.21827056 -0.1241714 -0.42677703 -0.2990069
000120 cc 65 a8 be 6d 82 2e 3e 0c ee 86 be a1 6a 44 3e
       -0.32890165 0.17041941 -0.2635349 0.191813
000130 f0 c9 4c 3e 82 d1 52 be bb 7c 2a be 51 fb 08 be
       0.19998908 -0.20587733 -0.16649143 -0.1337712
000140 f7 9d 9b be a7 6d d4 3e 9e b1 ba bd d2 07 01 be
       -0.30393955 0.41489908 -0.09115909 -0.1260064
000150 db 0b aa be 03 8f 90 bd df 02 ce be d3 68 87 be
       -0.3321217 -0.07058527 -0.40236565 -0.26447162
000160 da a5 c2 3e dc 0f f7 be fb 1b 26 3e 8d c7 b9 be
       0.3801716 -0.48254287 0.16221611 -0.36285058
000170 9e 66 fb 3e dc 1b f7 bd 36 c1 47 3d 86 b7 89 3d
       0.49101728 -0.12065861 0.048768245 0.067244574
000180 cf 6f ed bd 06 0d c9 3e 20 1e 76 3e 5c 2a 1f be
       -0.115935914 0.3926775 0.2403493 -0.15543503
000190 ed 77 54 3d de 26 95 be 3f ab 7e 3d 95 19 c2 3e
       0.051872183 -0.29131216 0.06217503 0.37910143
0001a0 7c dc 54 3e 15 f6 f3 3d e2 f4 0c be ff 13 00 be
       0.20787233 0.11912171 -0.1376529 -0.12507628
0001b0 3e 7b 9e be c2 7a 00 be 3a 26 11 be 06 4c b0 3e
       -0.309534 -0.12546828 -0.14174739 0.34433
0001c0 c9 21 d7 3e 54 ed 31 3d ad c0 0e 3e dd 0c e2 3e
       0.42017964 0.043439224 0.13940687 0.4415044
0001d0 d5 bf 8b bd 5d 60 f9 3e 5e d2 9e 3e fb 6b b3 be
       -0.068236984 0.48706332 0.31019872 -0.3504332
0001e0 a3 97 b8 be 6e 74 8a be c8 61 c1 be 78 e8 1b bd
       -0.3605319 -0.27041954 -0.37769914 -0.038063496
0001f0 55 6e da 39 25 81 a7 be 60 64 b3 be 68 1b 51 be
       0.00041662404 -0.32715717 -0.35037518 -0.20420611
000200 de 72 6d be 08 fb bc be 17 d0 d1 be 19 b4 92 be
       -0.2318835 -0.36910272 -0.40979072 -0.2865303
000210 ec 74 d9 be e2 43 b7 3d b6 49 2f be be 97 7c bb
       -0.42472017 0.089484945 -0.17117962 -0.0038542594
000220 39 e8 16 be 07 ac cb 3e 05 1f 5c be 28 a4 f9 3e
       -0.14737023 0.39779684 -0.21496208 0.48758054
000230 fb 15 d0 be 85 d5 91 be 6e 11 cb bd b6 81 a6 3e
       -0.4064177 -0.28483215 -0.09915434 0.32520837
000240 7a 4e c7 be 7c 0a c3 3e 9d 54 da 3e e9 f7 35 be
       -0.3892706 0.38093936 0.4264268 -0.17770351
000250 01 3b ee be cc af e1 3e 44 2d ad be 89 dd 06 be
       -0.4652939 0.44079435 -0.33823597 -0.13170446
000260 fe a1 a7 be 62 67 d3 3e 0c ca db be 85 31 76 be
       -0.32740778 0.41289812 -0.42927587 -0.24042328
000270 fa 0f a5 be 7a c5 9f be 98 5a 9a be 4b cf dc be
       -0.32238752 -0.3120535 -0.30147243 -0.43126902
000280 e7 75 8c be 27 21 45 be 48 59 27 be 35 e5 26 3e
       -0.27433702 -0.19250928 -0.16342652 0.16298373
000290 1b de 99 3e 27 97 d5 3e af e9 ee 3e 93 95 42 be
       0.30052266 0.41716883 0.4666266 -0.1900237
0002a0 b4 c7 96 3e e1 d3 31 3e 40 ab a7 be 07 4e d9 bd
       0.29449236 0.17365982 -0.3274784 -0.10610586
0002b0 4e b0 d2 3e 8b 06 17 be f3 74 01 3e 55 13 29 3e
       0.41150135 -0.1474859 0.12642269 0.16511281
0002c0 3e bd c8 3d d3 25 99 3e 2c 43 b9 3d 5e 65 9a be
       0.0980172 0.2991167 0.09046015 -0.30155462
0002d0 12 80 ab 3e 0f 41 a9 3e 8e eb d7 3e b5 7d d1 bd
       0.33496147 0.33057448 0.421719 -0.10229055
0002e0 de 3a 9c be 85 02 0f be f2 6b d0 3e b3 5a b7 3d
       -0.30513662 -0.13965805 0.40707356 0.089528464
0002f0 a1 6d 89 be e3 20 81 be 17 6d 40 be ad df ac be
       -0.26841453 -0.25220403 -0.18791614 -0.337644
000300 0c e2 0d bd 48 92 29 3e 2e 3f a1 be a3 c9 cb bd
       -0.034639403 0.16559708 -0.31493515 -0.099505685
000310 46 e3 88 3e b5 cc 9a be 0d 30 2e be 7c af 6f be
       0.26735896 -0.30234304 -0.17010517 -0.23406786
000320 88 06 95 3d f9 b0 ba 3e 08 55 b9 3d fb a9 dd 3e
       0.07276636 0.36463144 0.090494215 0.43293747
000330 31 28 b0 3e 62 5e f8 be 8d a9 8a be ad e3 4d 3d
       0.34405664 -0.48509508 -0.27082482 0.050265957
000340 dd 50 9e 3e 83 20 88 3e aa 78 01 3e bd 64 7e 3e
       0.3092107 0.26587304 0.12643686 0.24843116
000350 da 1e f1 be 5c 91 0f 3d e6 89 c0 3e 6c a8 97 3d
       -0.4709385 0.035050735 0.37605208 0.07405171
000360 09 d8 62 3d e3 94 09 be b7 3c 0b be 06 23 c5 3e
       0.05538181 -0.13435702 -0.1359738 0.38503283
000370 af e4 7b 3d 58 c3 64 bd 6e 46 38 3e 99 03 cf bd
       0.061497387 -0.055850357 0.17995617 -0.10108108
000380 12 a2 cb 3d 99 d3 83 3e 02 b8 ae be ef 54 0e be
       0.09943022 0.25747374 -0.34124762 -0.13899587
000390 ff df 22 bd fc 42 90 be 49 07 c8 3e 5f c6 a4 be
       -0.0397644 -0.28176105 0.39068058 -0.32182595
0003a0 62 46 9d 3e 55 d8 b4 ba 4a 75 81 3e b0 5a fc 3e
       0.3071776 -0.0013797382 0.25284797 0.4928794
0003b0 9e aa da be b5 6f 33 3d 99 1f d1 3e 2d 76 43 bd
       -0.42708296 0.043807704 0.4084442 -0.047720123
0003c0 f9 b5 cb 3e 59 f2 f4 be 23 e9 11 3e 24 b5 b5 be
       0.39787272 -0.47841147 0.14249091 -0.35489762
0003d0 4d 8a 2a be aa f1 49 3e 6d fe a2 be 5b 64 d0 3e
       -0.1665432 0.19721094 -0.31834736 0.40701565
0003e0 a0 2e 1f 3e 23 0f 61 bc 33 a4 fd 3d 33 6c c7 3e
       0.1554513 -0.013736519 0.12384834 0.38949737
0003f0 46 9f 23 bd 63 3e a8 be 89 c1 1a 3e 36 6e 2c be
       -0.039946817 -0.32860097 0.1511289 -0.16838917

decoder.2.weight f4 [1, 1, 3, 3]
000000 37 53 4e 3e 03 0c 59 bc 85 cf 93 3e 4a 40 63 3d
       0.20148931 -0.013247493 0.28869262 0.055481233
000010 be c4 a0 be da 1c 24 3e df 96 1d bd cd 9d 80 3e
       -0.31400102 0.16026631 -0.03847396 0.25120392
000020 fd 1e 8a be
       -0.26976767
